…
(1024, 5) train sequences
(25, 5) test sequences
-------mean factor: [460.15748209 443.38691659 425.52264657 ...  32.56278447  32.48687909
  32.41048494]
-------normalization factor: [2551.94712155 2315.16942977 2112.93808435 ...  124.72727295  124.52468782
  124.31939278]
__________________________________________________________________________________________________
Layer (type)                    Output Shape         Param #     Connected to                     
==================================================================================================
input_1 (InputLayer)            (None, 2549)         0                                            
__________________________________________________________________________________________________
dense_1 (Dense)                 (None, 1600)         4080000     input_1[0][0]                    
__________________________________________________________________________________________________
dense_2 (Dense)                 (None, 1024)         1639424     dense_1[0][0]                    
__________________________________________________________________________________________________
dense_3 (Dense)                 (None, 512)          524800      dense_2[0][0]                    
__________________________________________________________________________________________________
dense_4 (Dense)                 (None, 256)          131328      dense_3[0][0]                    
__________________________________________________________________________________________________
dense_5 (Dense)                 (None, 128)          32896       dense_4[0][0]                    
__________________________________________________________________________________________________
dropout_1 (Dropout)             (None, 128)          0           dense_5[0][0]                    
__________________________________________________________________________________________________
dense_6 (Dense)                 (None, 16)           2064        dropout_1[0][0]                  
__________________________________________________________________________________________________
dense_7 (Dense)                 (None, 16)           2064        dropout_1[0][0]                  
__________________________________________________________________________________________________
lambda_1 (Lambda)               (64, 16)             0           dense_6[0][0]                    
                                                                 dense_7[0][0]                    
__________________________________________________________________________________________________
dense_8 (Dense)                 multiple             272         lambda_1[0][0]                   
__________________________________________________________________________________________________
…
